…
Generating splits...:  50%|                                                                                                         | 1/2 [00:15<00:15, 15.13s/ splitsDone writing ~/tensorflow_datasets/mnist/3.0.1.incompleteMGWHS0/mnist-test.tfrecord*. Number of examples: 10000 (shards: [10000])
Dataset mnist downloaded and prepared to ~/tensorflow_datasets/mnist/3.0.1. Subsequent calls will reuse this data.
Constructing tf.data.Dataset mnist for split None, from ~/tensorflow_datasets/mnist/3.0.1
Model: ""sequential""
_________________________________________________________________
Layer (type)                 Output Shape              Param #
=================================================================
conv2d (Conv2D)              (None, 26, 26, 32)        320
_________________________________________________________________
max_pooling2d (MaxPooling2D) (None, 13, 13, 32)        0
_________________________________________________________________
conv2d_1 (Conv2D)            (None, 11, 11, 64)        18496
_________________________________________________________________
max_pooling2d_1 (MaxPooling2 (None, 5, 5, 64)          0
_________________________________________________________________
conv2d_2 (Conv2D)            (None, 3, 3, 64)          36928
_________________________________________________________________
flatten (Flatten)            (None, 576)               0
_________________________________________________________________
dense (Dense)                (None, 64)                36928
_________________________________________________________________
dense_1 (Dense)              (None, 10)                650
=================================================================
Total params: 93,322
Trainable params: 93,322
Non-trainable params: 0
_________________________________________________________________
2022-08-27 07:23:20.046835: W tensorflow/core/framework/dataset.cc:679] Input of GeneratorDatasetOp::Dataset will not be optimized because the dataset does not implement the AsGraphDefInternal() method needed to apply optimizations.
…
